Cnn.pth (torch, 125486 bytes, 22 tensors)

layer1.0.weight f4 [16, 3, 3, 3]
0	0xbe80f658	-0.25187945
1	0xbd848a0f	-0.06471645
2	0xbe7e6d02	-0.2484627
3	0xbe6dba74	-0.23215657
4	0xbd8a76b6	-0.067609236
5	0xbe525816	-0.20541415
6	0xbe891ad9	-0.26778296
7	0xbd63c83a	-0.055610873
8	0xbe030fbb	-0.1279897
9	0x3d861700	0.06547356
10	0x3e1ab809	0.15109266
11	0xbe345587	-0.17610751
12	0x3de3c09a	0.1112072
13	0xbdbe204b	-0.09283503
14	0xbc941311	-0.018075498
15	0xbd6d39ae	-0.057916336
16	0x3ba3d548	0.0049997903
17	0x3d4ca785	0.049964447
18	0x3e4c8e0b	0.1997606
19	0x3df37f8a	0.118895605
20	0x3e637c8f	0.22215484
21	0x3cfd0d16	0.030890029
22	0x3d507a8f	0.05089813
23	0x3e5b3158	0.21405542
24	0x3e95228d	0.29127923
25	0x3c47d516	0.0121968
26	0x3d8e7cdb	0.06957408
27	0xbe342f87	-0.17596255
28	0xbcfd154c	-0.030893944
29	0xbd78b786	-0.060721897
30	0xbdcf58c2	-0.10124351
31	0xbe18079c	-0.14846653
32	0xbe223a99	-0.15842666
33	0xbe4850b0	-0.1956203
34	0x3b447de4	0.0029982263
35	0xbd657eb8	-0.05602905
36	0x3e1739c8	0.14768136
37	0xbb982a46	-0.0046437113
38	0x3e3512f4	0.17683011
39	0xbe3a5be1	-0.18199112
40	0xbc275229	-0.01021246
41	0xbb0444e6	-0.0020182668
42	0xbe53d913	-0.20688276
43	0x3ce8cbe1	0.02841753
44	0xbd9c28d6	-0.07624976
45	0xbe05e22e	-0.13074562
46	0xbe426b1a	-0.18986169
47	0xbe06f596	-0.13179621
48	0xbe8d9785	-0.27654663
49	0x3e17b246	0.148141
50	0xbe574b2c	-0.2102477
51	0xbdfba820	-0.12287927
52	0xbe0ed729	-0.13949265
53	0xbe39d038	-0.18145835
54	0x3db6858f	0.08912193
55	0x3d8a67fa	0.06758113
56	0xbe8fbea6	-0.2807514
57	0x3d44d42d	0.04805391
58	0x3dc5c2ec	0.09656319
59	0xbe9c4459	-0.30520895
60	0xbdeb2042	-0.11480762
61	0x3e509d29	0.20372452
62	0xbe20fc0a	-0.15721145
63	0x3e6d3c34	0.23167497
64	0xbd9f0489	-0.07764537
65	0xbdcce330	-0.1000427
66	0x3e53e31b	0.20692103
67	0x3e42fc16	0.19041476
68	0xbe03eb02	-0.12882617
69	0x3dc738f8	0.09727663
70	0x3e4248a9	0.1897303
71	0xbe0e48f9	-0.13895024
72	0xbdf1ed42	-0.118128315
73	0xbd93ee26	-0.072231576
74	0xbeadf40e	-0.3397526
75	0xbd74be05	-0.05975153
76	0x3e552a99	0.20817031
77	0xbd7149fb	-0.058908444
78	0x3c3e7b66	0.0116261
79	0x3e04bd87	0.12962924
80	0xbca38b0a	-0.01996376
81	0x3d4b8d5f	0.04969537
82	0xbda26857	-0.079300575
83	0x3d9f8350	0.07788718
84	0xbd204a37	-0.039133277
85	0x3ac8081e	0.0015261208
86	0xbd96a5db	-0.07355853
87	0x3da87706	0.08225827
88	0xbd6d4f6a	-0.057937063
89	0xbc4652f7	-0.012104741
90	0x3d03d591	0.032186095
91	0xbd44f366	-0.048083685
92	0xb99be9ad	-0.00029738006
93	0x3e147f77	0.14501749
94	0x3debd4d1	0.11515201
95	0x3dd0b2bc	0.10190341
96	0x3e31aef1	0.17351891
97	0x3e82ffe3	0.2558585
98	0x3e61d3d0	0.22053456
99	0xbe06c5c5	-0.1316138
100	0xbe63002d	-0.22168036
101	0xbec2a3ef	-0.38015696
102	0x3c8da4e7	0.017290546
103	0xbe9a384e	-0.30121082
104	0xbebd8051	-0.3701196
105	0xbe9915a0	-0.2989931
106	0xbec83296	-0.39101094
107	0xbee03b8f	-0.4379544
108	0x3eb4036b	0.35158858
109	0x3de95c12	0.11394514
110	0xbd445d11	-0.047940318
111	0x3e8e6b93	0.27816448
112	0x3bbe30fd	0.0058041797
113	0xbe21e903	-0.15811543
114	0xbe085c82	-0.13316539
115	0xbe39a1f9	-0.18128194
116	0xbe5998eb	-0.2124974
117	0x3c40106c	0.011722665
118	0x3db5da67	0.088795476
119	0xbe323785	-0.17403992
120	0x3c9fb1ed	0.019494021
121	0xbdc7227e	-0.09723376
122	0xbe7947a7	-0.2434374
123	0xbe2f0210	-0.1709063
124	0xbd7994f0	-0.060933053
125	0xbd8b6463	-0.068062566
126	0x3e82c5c5	0.2554151
127	0xbd3ba909	-0.0458155
128	0x3d0d382c	0.034477398
129	0xbdadffca	-0.084960535
130	0x3df5cd18	0.12002009
131	0xbdfe5b37	-0.124197416
132	0x3d7a2f07	0.061080005
133	0x3d4f93b2	0.050677963
134	0xbd0b63fc	-0.0340309
135	0xbeb6e5d8	-0.35722232
136	0xbe897e80	-0.26854324
137	0x3e209953	0.15683489
138	0xbc86fcfa	-0.01647805
139	0x3e34e83b	0.17666714
140	0x3dff1127	0.124544434
141	0x3cca0c54	0.024664082
142	0xbd324d24	-0.0435306
143	0x3db031b8	0.08603233
144	0xbe2947a2	-0.16531232
145	0x3db1dc70	0.08684623
146	0x3e7f55ec	0.2493512
147	0xbe5d113c	-0.21588606
148	0xbdac2b9a	-0.08406754
149	0x3e908f8f	0.28234527
150	0xbc8dc50e	-0.017305877
151	0x3e91d4f1	0.28482774
152	0x3ea00283	0.31251916
153	0xbe59a23e	-0.21253297
154	0xbe164b1b	-0.14677088
155	0xbcb02681	-0.021502735
156	0xbcbbed28	-0.022940233
157	0xbdd09b4e	-0.10185872
158	0x3d608105	0.054810543
159	0x3dca0246	0.09863715
160	0xbd2862a3	-0.041109692
161	0x3df05b72	0.11736192
162	0x3eede667	0.46464846
163	0x3edb2199	0.4279907
164	0x3eaf741b	0.3426827
165	0x3e059e8f	0.13048767
166	0x3ea76f4a	0.32702094
167	0xbd639880	-0.055565357
168	0x3e4fa310	0.20277047
169	0x3dfa2a20	0.12215066
170	0xbddfdcb8	-0.10930771
171	0x3e078bb7	0.1323689
172	0x3cd23bdd	0.02566331
173	0x3c14ddd8	0.009086095
174	0xbd75a1a5	-0.05996861
175	0xbe05e687	-0.1307622
176	0xbdc7dd5c	-0.09759018
177	0x3c97aad3	0.018514073
178	0xbdcf4d5a	-0.101221755
179	0xbeaa09c3	-0.33210573
180	0xbdc2e4eb	-0.09516319
181	0x3d4cec6f	0.05003017
182	0x3d8992ba	0.06717439
183	0x3db33517	0.087503605
184	0xbbd5f5f6	-0.006529565
185	0xbbfaddff	-0.0076558585
186	0xbc3b6059	-0.011436545
187	0xbd5de715	-0.054175455
188	0xbdc0a4d4	-0.094064385
189	0xbe436b25	-0.19083841
190	0x3e4eb27e	0.20185277
191	0x3df31c90	0.11870682
192	0xbd232aaf	-0.039835628
193	0x3e7156cd	0.23568268
194	0x3e8edddc	0.2790364
195	0x3dcead1d	0.100916125
196	0xbcee76d7	-0.029109402
197	0x3ea47e2a	0.32127506
198	0xbe83a42a	-0.25711185
199	0xbdd75890	-0.10514939
200	0xbdd8b082	-0.10580541
201	0xbe21a37a	-0.15785018
202	0xbdea7d69	-0.11449701
203	0xbc6c94f7	-0.014439813
204	0xbb0a492a	-0.0021100738
205	0xbe72dbca	-0.23716655
206	0xbdc1810f	-0.09448444
207	0x3db3a396	0.08771436
208	0xbc804c81	-0.01566148
209	0xbc8f397b	-0.017483464
210	0xbe7c99bd	-0.24668022
211	0x3c793e73	0.015212643
212	0xbdc77cde	-0.097406134
213	0xbd10f200	-0.03538704
214	0xbc66a9b3	-0.014078545
215	0x3e6da54f	0.23207591
216	0xbe4fc256	-0.20288977
217	0xbc14d8da	-0.009084905
218	0x3d6abbd2	0.057308026
219	0x3d5da755	0.05411466
220	0xbe5af423	-0.21382193
221	0xbe19132a	-0.14948717
222	0xbe91c6d6	-0.28472012
223	0x3cca66a3	0.024707144
224	0x3ca20a28	0.019780234
225	0x3e8240f0	0.25440168
226	0x3e89f45a	0.26944238
227	0x3eb680db	0.35645184
228	0xbd60d57f	-0.054891106
229	0x3e3aa056	0.18225226
230	0x3d9839c3	0.07432892
231	0x3e5bea4c	0.21476096
232	0xbc02aede	-0.007976262
233	0x3decde29	0.11565811
234	0xbd793238	-0.060838908
235	0x3dce52ff	0.10074424
236	0xbe443ed3	-0.1916459
237	0x3e0ad787	0.1355878
238	0x3e04879c	0.12942356
239	0xbe60805b	-0.21923964
240	0xbe89002b	-0.2675794
241	0xbda49f18	-0.08038157
242	0xbe03cb19	-0.12870444
243	0x3e816429	0.2527173
244	0xbda905ff	-0.08253097
245	0xbe63b104	-0.22235495
246	0x3e959f68	0.2922318
247	0x39c71654	0.00037972874
248	0xbe7a0d70	-0.24419188
249	0x3e73c04e	0.23803827
250	0x3cecd28a	0.028908987
251	0x3da41be6	0.08013134
252	0xbd815298	-0.06314582
253	0x3dae3238	0.08505672
254	0xbd4653df	-0.04841983
255	0x3d966b44	0.07344678

layer1.0.bias f4 [16]
0	0xbe876141	-0.26441386
1	0xbdb2bd4f	-0.08727514
2	0x3d18c32b	0.0372955
3	0x3eb47be0	0.3525076
4	0x3e0115ab	0.12605922
5	0x3e074eb7	0.13213621
6	0xbe2ebc4c	-0.17064017
7	0x3e05c906	0.13064966
8	0xbe7f7479	-0.24946775
9	0xbdcb2170	-0.09918487
10	0x3d8c0d22	0.068384424
11	0xbdcd1a9e	-0.100148425
12	0xbdaf360e	-0.08555232
13	0xbe2d0cf5	-0.16899474
14	0x3dc57f9b	0.096434794
15	0xbd5e2ba8	-0.054240853

layer1.1.weight f4 [16]
0	0x3f8185da	1.0118973
1	0x3f3d4d16	0.7394575
2	0x3f6f8702	0.9356538
3	0x3f4b8a7c	0.79508185
4	0x3f468ab3	0.7755539
5	0x3f619c1c	0.8812883
6	0x3f6a3c92	0.9149867
7	0x3f7143db	0.94244164
8	0x3f7160dd	0.94288427
9	0x3f7316a6	0.94956434
10	0x3f94fc92	1.1639578
11	0x3f85a1a7	1.0439957
12	0x3f5afe11	0.85543925
13	0x3f43710c	0.7634437
14	0x3f8ec77d	1.1154629
15	0x3f891182	1.0708468

layer1.1.bias f4 [16]
0	0x3ea96653	0.3308588
1	0xbeae1ff7	-0.34008762
2	0xbc2846c1	-0.010270775
3	0xbeaf2def	-0.34214732
4	0xbf0d1523	-0.5511038
5	0xbdbb7d1d	-0.09154723
6	0xbe3cd4f6	-0.18440613
7	0xbd490608	-0.049078017
8	0x3e44a736	0.19204411
9	0xbd0f8e7a	-0.035047986
10	0xbe40633b	-0.18787853
11	0xbea49cc1	-0.32150844
12	0xbe9dc712	-0.3081594
13	0x3d026492	0.031834193
14	0xbe970ae7	-0.29500505
15	0xbe456cb8	-0.19279754

layer1.1.running_mean f4 [16]
0	0xbf14be20	-0.5810261
1	0xbf90fffa	-1.1328118
2	0xbd13225c	-0.03592144
3	0xbe2b9e99	-0.16759719
4	0xbde3721b	-0.11105748
5	0x3eaaf684	0.33391201
6	0x3f083ebd	0.5322073
7	0x3dd1350a	0.102151945
8	0xbe1f238d	-0.15540905
9	0xbdb8db91	-0.09026254
10	0x3d6d658d	0.057958174
11	0xbe7a3984	-0.24436003
12	0xbfa1daac	-1.2644858
13	0xbfb059ce	-1.3777406
14	0x3dc5b03e	0.09652756
15	0x3bb5ae29	0.005544443

layer1.1.running_var f4 [16]
0	0x3d6714d1	0.056416336
1	0x3ea89ee1	0.32933715
2	0x3c03beab	0.008041064
3	0x3e5c5e01	0.21520235
4	0x3c921ccc	0.017835997
5	0x3c8af699	0.01696329
6	0x3e07d984	0.1326657
7	0x3c7efb72	0.015562879
8	0x3c585a15	0.013205071
9	0x3c0718d3	0.008245665
10	0x3b87ed45	0.004148158
11	0x3ca79f40	0.020461679
12	0x3ebf895d	0.37409487
13	0x3ecbf08b	0.39831957
14	0x3b80aede	0.003927096
15	0x3ca346c8	0.019931212

layer2.0.weight f4 [32, 16, 3, 3]
0	0xbd8029d7	-0.0625798
1	0xbe049963	-0.12949137
2	0xbe56c1cc	-0.20972365
3	0xbdb9e365	-0.09076575
4	0x3d2776d9	0.040884826
5	0xbd811f6a	-0.0630482
6	0x3dc3d8d0	0.09562838
7	0x3e263b0e	0.16233465
8	0x3e316bf9	0.17326345
9	0x3d01546c	0.03157465
10	0xbd554bd6	-0.052074276
11	0xbc83e13b	-0.01609861
12	0x3e0e367e	0.13887975
13	0x3d2c9563	0.042134654
14	0x3d113f4f	0.035460766
15	0x3e0fefe3	0.14056353
16	0x3e016346	0.12635526
17	0x3e268d93	0.16264944
18	0xbe03e8b3	-0.12881736
19	0xbe3889e8	-0.18021357
20	0xbda34b51	-0.0797335
21	0x3d807be3	0.062736295
22	0xbbf0b68d	-0.0073459805
23	0x3dd05a39	0.101734586
24	0xbda8edf3	-0.0824851
25	0x3c68abd0	0.01420112
26	0x3d6ea6b3	0.058264446
27	0xbd45876f	-0.048224863
28	0xbe67fc68	-0.22654879
29	0xbd41bbba	-0.04729817
30	0x3dabb0e5	0.08383349
31	0x3d42b34a	0.047534265
32	0x3d49d092	0.049271174
33	0x3e48c2e2	0.19605592
34	0x3d67f27e	0.056627743
35	0x3e28271c	0.16421169
36	0xbddf8bad	-0.10915313
37	0x3d41ada4	0.047284737
38	0x3cca94d5	0.024729172
39	0x3de843e9	0.11341078
40	0x3c51fa43	0.012816015
41	0x3e2aa878	0.16665828
42	0xbce21467	-0.02759762
43	0x3d875353	0.0660769
44	0x3df3245f	0.118721716
45	0x3d4ede6f	0.050505098
46	0x3dcb0028	0.09912139
47	0xbe4557ff	-0.19271849
48	0x3d49f9fe	0.049310677
49	0xbd0be56c	-0.03415434
50	0xbd7cf80c	-0.061759993
51	0xbd4c7373	-0.04991479
52	0x3e2514e4	0.1612125
53	0xbbe1d9d7	-0.0068924236
54	0x3e1df79a	0.15426484
55	0x3e47f9bc	0.1952886
56	0x3d8bf87a	0.068345025
57	0xbd6402ff	-0.05566692
58	0xbd816568	-0.0631817
59	0x3bb4bd32	0.005515718
60	0xbe042cd7	-0.1290773
61	0xbdb5877c	-0.08863732
62	0xbdb8a7e3	-0.09016397
63	0x3dc07b95	0.093985714
64	0x3dbedc27	0.093193345
65	0xbc9a6f74	-0.018851973
66	0x3d6339cb	0.055475038
67	0xbd90b6dc	-0.07066128
68	0x3d0086c8	0.031378537
69	0xbdf8c60e	-0.12147151
70	0xbe2016e2	-0.15633729
71	0xbe0be01a	-0.13659707
72	0x3a1cd845	0.00059831544
73	0x3cbfba22	0.023404185
74	0xbbcc1f7a	-0.0062293382
75	0x3c3b692c	0.011438649
76	0xbd6e253d	-0.058140982
77	0xbb94beb9	-0.0045393375
78	0x3d3c9fb3	0.04605074
79	0x3e1f6ea1	0.15569545
80	0x3e230a75	0.15921958
81	0x3d7640e7	0.06012049
82	0x3df7e3ac	0.12103972
83	0x3d949106	0.072542235
84	0xbdd5857e	-0.10425852
85	0xbd1eeb18	-0.03879842
86	0x3d961aa9	0.07329304
87	0xbe42211f	-0.18957947
88	0xbdd484eb	-0.103769146
89	0xbdc9bd94	-0.09850612
90	0xbe5504e6	-0.2080265
91	0xbcbffa13	-0.023434674
92	0xbdb77d77	-0.089594774
93	0xbd776346	-0.06039741
94	0xbcc9f25c	-0.024651699
95	0xbb68d0e7	-0.0035524906
96	0x3d0d3c61	0.03448141
97	0x3dacb104	0.084322006
98	0xbcae6872	-0.021290038
99	0x3d8df965	0.06932334
100	0x3e4f972e	0.20272514
101	0x3dfdce25	0.123928346
102	0x3e28867a	0.16457549
103	0x3da22056	0.07916324
104	0x3d68af30	0.056807697
105	0x3c941090	0.018074304
106	0xbc1ebd6d	-0.009688717
107	0xbe36a70f	-0.17837165
108	0x3d30b2f2	0.043139406
109	0xbd7202f7	-0.05908486
110	0xbdc42340	-0.09577036
111	0x3daf9107	0.08572584
112	0x3d8b84f4	0.06812468
113	0x3cb37516	0.021906417
114	0x3e24ae2e	0.1608207
115	0x3d549788	0.051902324
116	0x3b2647f7	0.0025372484
117	0xbd820af5	-0.06349746
118	0xbddb6f71	-0.10714615
119	0xbd687257	-0.056749668
120	0x3cf0003a	0.029296983
121	0x3c5385ee	0.012910349
122	0xbcd5d5c2	-0.026102904
123	0x3d5710cb	0.05250625
124	0xbd0398c2	-0.032128103
125	0x3ddc2433	0.10749092
126	0x3e46c817	0.19412266
127	0x3e332701	0.17495348
128	0x3d90bcd3	0.07067265
129	0x3e685a3a	0.22690669
130	0x3ea489cd	0.32136384
131	0x3e6d42c5	0.23170002
132	0x3e0f8f73	0.14019565
133	0x3ea362a1	0.31911185
134	0x3e7328ae	0.23745987
135	0x3e4493b9	0.19196977
136	0x3e959f24	0.29222977
137	0x3e93153e	0.28727144
138	0x3dbeb922	0.09312655
139	0x3d0670d2	0.032822438
140	0x3d4162eb	0.047213476
141	0xbdfd90cb	-0.12381133
142	0xbd841a2f	-0.064503066
143	0xbdc4edde	-0.09615682
144	0x3dd78775	0.10523883
145	0xbdbd75c1	-0.092509754
146	0x3def90a4	0.1169751
147	0x3d874014	0.06604019
148	0xbd5dec93	-0.054180693
149	0x3d2302ef	0.03979772
150	0x3d86a385	0.065741576
151	0x3d2854ca	0.041096486
152	0xbd05459c	-0.032537088
153	0xbdb61bcd	-0.08892021
154	0xbccceba3	-0.025014704
155	0xbccf0c54	-0.025274433
156	0xbd323f94	-0.043517664
157	0xbcf0925c	-0.029366665
158	0xbd47c4ca	-0.048771657
159	0x3daa80bf	0.083253376
160	0xbd8dde67	-0.069271855
161	0xbdaa2c93	-0.08309283
162	0x3e3c05a0	0.18361521
163	0x3e8832cd	0.26601258
164	0x3e4f6c1f	0.20256089
165	0x3ddf512e	0.10904156
166	0x3e944b33	0.28963622
167	0x3e5b859d	0.21437688
168	0x3c0a21aa	0.008430878
169	0x3cbb13da	0.022836614
170	0x3e86057b	0.26176056
171	0xbd766f03	-0.060164463
172	0xbd483fd5	-0.048889
173	0xbe5d02bd	-0.21583076
174	0xbcd54d8a	-0.02603795
175	0xbda2c239	-0.07947201
176	0xbd9b6112	-0.07586874
177	0xbd973806	-0.073837325
178	0xbd96195a	-0.07329054
179	0xbdf05a88	-0.117360175
180	0xbca33909	-0.019924657
181	0x3dba2a8e	0.09090148
182	0xbd6658b4	-0.056236938
183	0xbcddfc30	-0.027097791
184	0x3d372117	0.04470929
185	0xbd84ca8b	-0.064839445
186	0x3d2625b7	0.04056331
187	0x3d273957	0.040826168
188	0x3c8c79db	0.017147949
189	0x3d0bde61	0.034147624
190	0xbd94706b	-0.072480045
191	0x3d73ff9f	0.05956995
192	0x3c35f9d2	0.011106925
193	0xbe051240	-0.12995243
194	0x3d8b4ac5	0.068013705
195	0xbd9eb19d	-0.07748721
196	0xbda98b85	-0.08278564
197	0xbd65ec84	-0.056133762
198	0x3da3bd6e	0.07995115
199	0xbb151dfd	-0.002275347
200	0x3d061aa6	0.032740258
201	0x3d2a5fa1	0.041595105
202	0x3c222810	0.009897247
203	0xbcbb4056	-0.022857826
204	0xbdb38257	-0.08765095
205	0xbdbc2d8c	-0.09188375
206	0x3cd29ec7	0.025710477
207	0x3dcb3aaf	0.099233024
208	0x3e45103a	0.19244471
209	0x3e689332	0.227124
210	0x3e1d6e6d	0.15374155
211	0x3bf6c511	0.0075308164
212	0x3e26bfea	0.16284147
213	0xbb81f63a	-0.00396612
214	0xbd55fc68	-0.052242666
215	0xbcf78b2b	-0.030217728
216	0xbe475ed4	-0.19469768
217	0xbe63ca62	-0.22245172
218	0xbe0d12cd	-0.13776703
219	0xbda43749	-0.08018357
220	0xbe5bcccf	-0.21464847
221	0xbe105b1d	-0.14097257
222	0xbe490c5b	-0.1963362
223	0xbe04543a	-0.12922755
224	0xbd06712e	-0.03282278
225	0x3e59bf18	0.21264303
226	0x3eb72a28	0.3577435
227	0x3dca4d7b	0.098780595
228	0x3ce32673	0.027728295
229	0x3e214c57	0.15751778
230	0x3e7c862d	0.24660559
231	0xbe026c49	-0.1273662
232	0xbd4e2586	-0.050328754
233	0x3db9bab0	0.09068811
234	0xbeb25acd	-0.348349
235	0x3d6dfbbc	0.0581014
236	0x3dea2c09	0.1143418
237	0xbeb12977	-0.34601948
238	0x3cbe1ded	0.02320763
239	0x3df59c7e	0.11992739
240	0xbdd9936a	-0.1062382
241	0xbd868f89	-0.06570346
242	0x3db13cc2	0.08654167
243	0x3d8f2d28	0.06991035
244	0x3dd7aa9b	0.10530587
245	0x3dabc6a4	0.08387497
246	0x3d269eee	0.04067891
247	0xbd51ecf1	-0.051251356
248	0xbc4a6c14	-0.012354869
249	0xbd516312	-0.05111987
250	0xbe0c8cee	-0.13725635
251	0xbe3d607d	-0.18493839
252	0xbe050e97	-0.12993847
253	0x3ca0bd9d	0.019621665
254	0xbdedfa1b	-0.116199695
255	0x3d8f3a05	0.06993488

layer2.0.bias f4 [32]
0	0x3dc3c7a3	0.09559562
1	0x3d4ddb9c	0.050258264
2	0x3de322cf	0.110906236
3	0x3b6689c8	0.003517734
4	0xbdbb4383	-0.09143736
5	0xbcdbd401	-0.02683449
6	0xbd42d758	-0.04756865
7	0xbda7b937	-0.08189624
8	0x3e1096a0	0.14119959
9	0x3cef2804	0.029193886
10	0xbcb0d609	-0.021586435
11	0x3d9bd6e2	0.07609345
12	0xbd1d2a52	-0.038370438
13	0x3d877eef	0.066160075
14	0x3b406ec0	0.0029362887
15	0x3da90d81	0.08254529
16	0xbe2f7ce6	-0.17137489
17	0xbdb8fb1a	-0.09032269
18	0xbbac0c03	-0.0052504553
19	0x3c1675dd	0.009183374
20	0x3dd5b4d8	0.10434884
21	0xbc36755b	-0.011136378
22	0x3db36d48	0.08761078
23	0x3da29d3a	0.07940145
24	0x3da9b93c	0.08287284
25	0xbe1f9756	-0.15585074
26	0xbdddcda4	-0.108302385
27	0xbd7bbfa3	-0.061462056
28	0xbe311158	-0.17291772
29	0xbd8702ab	-0.06592306
30	0xbda79b3b	-0.08183905
31	0x3df611bc	0.12015101

layer2.1.weight f4 [32]
0	0x3f547fbd	0.83007413
1	0x3f781982	0.9691392
2	0x3f8fd472	1.1236708
3	0x3f7b26e2	0.98106205
4	0x3f809e88	1.004838
5	0x3f4c0d94	0.7970822
6	0x3f58e14a	0.84718764
7	0x3f4dac49	0.8034101
8	0x3f64bfd9	0.89355236
9	0x3f848137	1.0351933
10	0x3f6137de	0.8797587
11	0x3f71fb0c	0.9452369
12	0x3f86a27e	1.0518339
13	0x3f6e50bb	0.93091935
14	0x3f6b9f88	0.920403
15	0x3f648e43	0.89279574
16	0x3f8ae036	1.0849674
17	0x3f790099	0.97266537
18	0x3f678616	0.90438974
19	0x3f7039d3	0.9383823
20	0x3f4be9e6	0.79653776
21	0x3f82729a	1.0191224
22	0x3f617476	0.8806833
23	0x3f894349	1.0723659
24	0x3f85a284	1.0440221
25	0x3f850b47	1.0394067
26	0x3f779aa7	0.96720356
27	0x3f8f9bba	1.1219399
28	0x3f6e25df	0.93026537
29	0x3f87ef4c	1.0619903
30	0x3f88872b	1.066625
31	0x3f69337b	0.9109418

layer2.1.bias f4 [32]
0	0xbf53fabd	-0.8280447
1	0xbe8b15e7	-0.27165148
2	0xbea8f594	-0.3299986
3	0xbeb30f80	-0.34972763
4	0xbe33d52b	-0.17561786
5	0xbf16c37f	-0.58892053
6	0xbed7da70	-0.42158842
7	0xbeececbe	-0.4627437
8	0xbf25494a	-0.64564955
9	0xbed2394b	-0.41059336
10	0xbec68d79	-0.3877981
11	0xbf24a750	-0.643178
12	0xbf34afd6	-0.70580804
13	0xbef268af	-0.47345492
14	0xbda91aaf	-0.082570426
15	0xbe41589e	-0.18881461
16	0xbe957212	-0.2918859
17	0xbe85d021	-0.26135352
18	0xbeb321ef	-0.34986827
19	0xbdd6a0f2	-0.10479917
20	0xbeeda933	-0.4641815
21	0xbee9441e	-0.45559782
22	0xbec32014	-0.3811041
23	0xbe87e180	-0.2653923
24	0xbea7ccbb	-0.32773384
25	0xbdfc9a14	-0.123340756
26	0xbd3fa39c	-0.04678689
27	0xbdddb1b6	-0.10824911
28	0xbee66dc9	-0.45005634
29	0x3d8f4ca4	0.0699704
30	0xbec8c265	-0.3921081
31	0xbdfb79bf	-0.122790806

layer2.1.running_mean f4 [32]
0	0x3f96787c	1.1755519
1	0x3e7e21c5	0.2481757
2	0xbfdeb848	-1.7399988
3	0xbf486d55	-0.7829183
4	0xc00a4eda	-2.1610627
5	0x3e0b7128	0.13617384
6	0xbe819ece	-0.2531647
7	0x3f447ea4	0.7675574
8	0x3ee62850	0.4495263
9	0xbfe09944	-1.7546773
10	0x3f56087f	0.83606714
11	0x3f3bff68	0.73436594
12	0xbf59d646	-0.8509258
13	0x40186678	2.3812542
14	0xc000f0f3	-2.0147064
15	0xc00c78ef	-2.1948812
16	0xbf5b5de2	-0.8569013
17	0xbf17355b	-0.5906579
18	0xbf543e17	-0.8290724
19	0xbe86f8d4	-0.26361716
20	0xbe3699e3	-0.1783214
21	0xc0020385	-2.0314648
22	0x3eb521a3	0.35377225
23	0xbf95503b	-1.1665109
24	0xc003fefc	-2.062438
25	0xc01a0f63	-2.4071891
26	0xbf9364de	-1.1515157
27	0xc0235e36	-2.5526252
28	0xbfb5dfa7	-1.4208878
29	0xbe9a64b2	-0.3015495
30	0xbf896658	-1.0734358
31	0xbf7f425e	-0.99710643

layer2.1.running_var f4 [32]
0	0x400c2dfe	2.1903071
1	0x401f4261	2.4884264
2	0x4020cd75	2.51254
3	0x408076f5	4.014521
4	0x405f21ba	3.4864335
5	0x3f966cc7	1.1751946
6	0x3fa3e9ab	1.2805685
7	0x3fb0cfbb	1.3813394
8	0x400a2e57	2.1590784
9	0x40432de8	3.049677
10	0x403a002f	2.9062612
11	0x40a660ea	5.1993303
12	0x3fe4bb9c	1.7869754
13	0x405c46af	3.4418142
14	0x408b1e27	4.3474307
15	0x402803ab	2.6252239
16	0x404f9ec3	3.244065
17	0x3fe402a6	1.7813308
18	0x3fb4fc61	1.413952
19	0x40ab0d5c	5.345381
20	0x3f5e01d7	0.8672156
21	0x408136f8	4.03796
22	0x4017cc66	2.3718505
23	0x401cd7c6	2.4506698
24	0x4095b776	4.678645
25	0x4087ddc5	4.2458215
26	0x40cbb0e9	6.3653455
27	0x40bfcf1e	5.994033
28	0x4002f8c8	2.0464344
29	0x407a1d10	3.9080238
30	0x4079a210	3.9005165
31	0x3fe0ff77	1.7577962

layer3.0.weight f4 [64, 32, 3, 3]
0	0xbdd64733	-0.10462799
1	0xbdeb93f4	-0.11502829
2	0xbe1df40e	-0.1542513
3	0xbdc3d0eb	-0.09561332
4	0xbe580c7a	-0.2109851
5	0xbe2db3ea	-0.16963163
6	0xbd1fa7c4	-0.038978353
7	0xbd5dd568	-0.0541586
8	0xbe54ec12	-0.20793179
9	0x3d8e07d6	0.06935088
10	0x3da660a1	0.08123899
11	0x3c437063	0.011928651
12	0x3ddcdc90	0.107842565
13	0xbba81935	-0.005129958
14	0x3ad35784	0.0016124104
15	0x3cd3ff79	0.025878655
16	0x3deeba85	0.116566695
17	0xbcd01357	-0.025399847
18	0xbe3452d4	-0.17609721
19	0xbe2e6a36	-0.17032704
20	0xbd8181e6	-0.06323604
21	0x3da42781	0.08015347
22	0xbcda90e8	-0.026680425
23	0x3d397894	0.045281008
24	0x3e58319c	0.21112674
25	0x3e45b652	0.19307831
26	0x3e4afd81	0.19823267
27	0x3e0cc89c	0.13748401
28	0x3e7f1550	0.24910474
29	0x3e1fb1fd	0.15595241
30	0x3d53fdc9	0.0517557
31	0x3e09d05f	0.13458394
32	0x3b157abe	0.0022808756
33	0x3c15f6ed	0.00915311
34	0x3dedfa92	0.11620058
35	0x3d83b73d	0.06431434
36	0x3da7fcea	0.082025364
37	0x3dc03903	0.09385874
38	0xbb2932de	-0.0025817673
39	0x3dd468a6	0.103715226
40	0x3ce718d5	0.028210083
41	0xbd93230d	-0.0718442
42	0x3dd93e08	0.10607535
43	0x3e7aa0e6	0.2447544
44	0xbe1adee0	-0.15124083
45	0x3e1e6947	0.15469848
46	0x3d4b2e27	0.04960456
47	0x3d80114b	0.06253298
48	0xbd8e6c28	-0.06954223
49	0xbeb6d93c	-0.35712612
50	0xbda9d9cb	-0.08293494
51	0xbe8570c8	-0.26062608
52	0xbeba0100	-0.36328888
53	0xbde013f3	-0.10941305
54	0xbdc0b037	-0.0940861
55	0xbe63de06	-0.22252664
56	0xbe410683	-0.1885014
57	0xbcfd934f	-0.030954031
58	0xbe3dbb9f	-0.18528603
59	0xbdebe8e3	-0.11519029
60	0x3d93e6c2	0.07221748
61	0x3b21ad26	0.0024669855
62	0xbce26abd	-0.027638787
63	0x3e09cb31	0.13456418
64	0x3dd1894b	0.10231265
65	0x3dc23ee9	0.094846554
66	0xbdad92ac	-0.08475241
67	0xbe559310	-0.20856881
68	0xbe46948b	-0.19392602
69	0xbc18c53d	-0.009324369
70	0xbd6d8a80	-0.057993412
71	0x3c6f3e8b	0.014602314
72	0xbb404e6c	-0.0029343618
73	0xbc8c4a3f	-0.017125247
74	0xbc702bd1	-0.014658884
75	0xbcc63086	-0.02419306
76	0xbc074a3d	-0.008257446
77	0xbcaf88ea	-0.02142759
78	0xbc95adae	-0.018271293
79	0xbe07aa0f	-0.13248466
80	0xbc5e60eb	-0.013572912
81	0x3d609571	0.05483002
82	0x3cb4db84	0.02207733
83	0xbcc575ea	-0.024104077
84	0x3c0461f8	0.008079998
85	0x3d2bc9d6	0.041940533
86	0xbd0e8927	-0.034798767
87	0x3e093607	0.13399516
88	0x3e48f03e	0.19622895
89	0xbe53dcc5	-0.20689686
90	0x3e255974	0.16147405
91	0x3ddf4d8b	0.10903462
92	0x3d5f496b	0.054513376
93	0xbd212e4d	-0.039350796
94	0xbd1d0bbd	-0.038341273
95	0xbd9a94d6	-0.075479195
96	0xba9c2477	-0.0011912723
97	0xbde85585	-0.113444366
98	0x3cd453d4	0.025918879
99	0xbe2237a0	-0.15841532
100	0xbdf14bb3	-0.117820166
101	0xb85242f0	-5.0130242e-05
102	0xbbcdaa5d	-0.0062764124
103	0xbcfbe840	-0.030750394
104	0x3dcff283	0.10153677
105	0x3dabd8e7	0.0839098
106	0x3d676a86	0.056498073
107	0x3e01074f	0.12600444
108	0x3d5df689	0.054190192
109	0xbd61959d	-0.055074323
110	0xbd343854	-0.04399903
111	0x3cda4e0b	0.026648542
112	0xbd718ac8	-0.058970243
113	0xbdd044c7	-0.10169368
114	0x3e259c02	0.16172794
115	0x3cdb276e	0.0267522
116	0x3cdb62ba	0.026780475
117	0xbe1c6ad2	-0.15275124
118	0xbda4db05	-0.08049587
119	0x3c4fcda4	0.012683306
120	0xbd730cae	-0.059338264
121	0xbe04dd40	-0.12975025
122	0x3c2427a3	0.010019216
123	0xbe1033f8	-0.14082325
124	0xbd3cf3d6	-0.046130978
125	0x3daf73fd	0.08567045
126	0xbdaa6223	-0.08319499
127	0x3bec5025	0.0072117024
128	0x3c6cb098	0.0144464
129	0xbdd571fe	-0.10422133
130	0xbe371930	-0.17880702
131	0x3c14a98c	0.009073626
132	0x3c821bf2	0.015882466
133	0x3cdad32b	0.02671202
134	0x3dd42a02	0.10359575
135	0x3b3882ae	0.0028154063
136	0xbe23422c	-0.15943211
137	0xbd427844	-0.047477975
138	0x3db559bd	0.08855007
139	0x3ddc3fcc	0.10754356
140	0x3ddb9666	0.107220456
141	0x3dfa7ee5	0.122312345
142	0x3e0c70a8	0.1371485
143	0x3e0f9a1b	0.1402363
144	0x3e858cc6	0.26083964
145	0x3e8402f6	0.2578351
146	0x3e1eab2a	0.15494981
147	0xbc3ce0ca	-0.011528203
148	0xbd36e6b3	-0.044653606
149	0xbe0585e0	-0.1303935
150	0xbe3debc7	-0.18546973
151	0xbc3671c7	-0.011135525
152	0xbe4ff99e	-0.20310065
153	0x3dd8d727	0.10587912
154	0x3dbaa7a5	0.09114007
155	0x3dd8f58d	0.1059371
156	0x3c6ecae0	0.014574736
157	0xba5e8f48	-0.00084899785
158	0xbb7ece20	-0.0038880184
159	0xbc003bb1	-0.007826732
160	0xbda27642	-0.07932712
161	0x3d32d0cc	0.043656155
162	0x3dbc31f9	0.09189219
163	0x3d592169	0.053010378
164	0x3d9d8b4f	0.07692587
165	0xbdded12b	-0.108797394
166	0xbe4cf103	-0.20013814
167	0xbe07ef02	-0.13274768
168	0xbdb23373	-0.087012194
169	0xbd4f5768	-0.050620466
170	0xbd5f25a5	-0.05447926
171	0x3c9ed732	0.019389722
172	0x3e071bf5	0.13194259
173	0x3d483d26	0.04888644
174	0xbc5b3998	-0.013380431
175	0x3c69c2b5	0.014267613
176	0x39656774	0.00021877681
177	0xbe57aa12	-0.2106097
178	0xbe2e2093	-0.17004614
179	0xbcafdfd3	-0.021469032
180	0x3daa8bed	0.0832747
181	0x3de60680	0.112317085
182	0x3d3c7a50	0.046015084
183	0xbe8dd18e	-0.2769894
184	0xbe887203	-0.26649484
185	0xbdd21c49	-0.10259301
186	0xbde5c4a5	-0.112191476
187	0xbe64c5e8	-0.2234112
188	0xbdb8b6eb	-0.09019264
189	0xbcbc958b	-0.023020526
190	0x3ca46b54	0.02007071
191	0x3d8b91d2	0.068149224
192	0xbd82cf36	-0.063871786
193	0x3d89bc23	0.06725337
194	0x3d1c34ca	0.03813628
195	0xbbd34f6e	-0.0064486777
196	0x3e285428	0.16438353
197	0xbb098ff5	-0.0020990346
198	0x3cd30ffd	0.02576446
199	0xbe547777	-0.20748697
200	0xbdcc791c	-0.09984037
201	0xbe87ca9b	-0.26521763
202	0xbeb775fa	-0.35832196
203	0xbdf64893	-0.12025561
204	0xbe2aa238	-0.16663444
205	0xbe1f9cc3	-0.15587144
206	0xbd4b9230	-0.049699962
207	0x3d75fd66	0.060056113
208	0xbd70bc52	-0.058773346
209	0xbd8e237a	-0.0694036
210	0xbd898b30	-0.06716001
211	0x3be140b2	0.0068741674
212	0x3d9a3460	0.07529521
213	0x3d2ed048	0.0426791
214	0x3cb3c820	0.021946013
215	0x3d12c9ac	0.03583686
216	0x3db52750	0.08845389
217	0xbdaa344b	-0.08310755
218	0xbddb17c1	-0.1069789
219	0xbd2034f4	-0.039113
220	0xbe0e050d	-0.13869114
221	0x3cbe0b33	0.0231987
222	0x3c8a0872	0.01684973
223	0x3c86df73	0.01646397
224	0xbd01394e	-0.03154879
225	0x3d6c21b2	0.05764932
226	0x3da8381b	0.08213826
227	0x3dddb3b2	0.1082529
228	0x3dc793ff	0.09745025
229	0x3e730364	0.23731762
230	0x3d9e108d	0.077180006
231	0xbdc5312d	-0.0962852
232	0x3dccdd4f	0.10003149
233	0xbdb53326	-0.088476464
234	0xbdcde27b	-0.10052963
235	0xbdae8930	-0.0852226
236	0x3d50f3be	0.0510137
237	0xbda20c8f	-0.079125516
238	0xbdb310b5	-0.08743421
239	0x3b65e345	0.003507809
240	0x3d1b6d60	0.037946105
241	0xbc6d1f3a	-0.014472777
242	0x3dc3d2aa	0.09561665
243	0xbdba923d	-0.09109924
244	0xbe980a5b	-0.296954
245	0xbd7758e0	-0.060387492
246	0xbdfde9a3	-0.12398078
247	0xbe4a2e9f	-0.19744347
248	0x3d04ef90	0.032455027
249	0x3dfa939f	0.12235188
250	0x3c3e4d5c	0.011615124
251	0x3d6c4609	0.05768398
252	0xbe0026b6	-0.12514767
253	0xbde7bae7	-0.11314946
254	0xbddc203a	-0.10748334
255	0x3d5dd1af	0.054155048

layer3.0.bias f4 [64]
0	0x3d5d26ac	0.05399196
1	0x3d1e42ca	0.038637914
2	0xbced0c3d	-0.0289365
3	0xbd08c22e	-0.03338831
4	0x3c38760f	0.011258616
5	0x3c00fd5c	0.007872906
6	0x3bf02f67	0.0073298695
7	0xbc66c9ad	-0.014086169
8	0xbcae0ee2	-0.021247331
9	0xbbe70de1	-0.007051215
10	0x3cd356c7	0.025798215
11	0xbd0a9db4	-0.033841804
12	0x3d8c5a86	0.068532035
13	0xbce6ecc0	-0.028189063
14	0xbd9af757	-0.075667076
15	0xbb36290a	-0.0027795457
16	0x3cfb6486	0.030687582
17	0xbd18892b	-0.03724019
18	0x3d35948a	0.04433111
19	0xbd2e6f1c	-0.04258643
20	0x3cdad9d0	0.02671519
21	0xbd33cae3	-0.04389466
22	0x3ceed0aa	0.029152233
23	0x3c704013	0.014663714
24	0x3d3bab7a	0.04581783
25	0x3d8a55a3	0.06754615
26	0xbdb4d14d	-0.088289835
27	0xbba06e47	-0.0048959586
28	0xbca56f0a	-0.02019455
29	0xbcb12a87	-0.021626724
30	0x3ce5b29d	0.028039271
31	0xbaa6a577	-0.0012714107
32	0xbc04478a	-0.008073697
33	0xbd13410f	-0.035950717
34	0xbcfeb328	-0.031091288
35	0x3b172788	0.0023064334
36	0xbd5ce998	-0.05393371
37	0x3caa9eb0	0.020827621
38	0x3d61d6c3	0.055136453
39	0xbcb628e5	-0.022236297
40	0x3c3c58b8	0.011495762
41	0x3c9603d3	0.01831237
42	0xbd84cd25	-0.06484441
43	0xbb6020e8	-0.00341993
44	0xbd7cfb82	-0.061763294
45	0x3cd96a07	0.026539816
46	0xbcba34d7	-0.022730274
47	0xbba59daf	-0.0050541977
48	0xbd3b4a6c	-0.04572527
49	0x3bba5db0	0.005687438
50	0x3d871168	0.06595117
51	0x3d04792b	0.032342117
52	0xbd4c7587	-0.04991677
53	0xbc52b05c	-0.01285943
54	0x3cb90248	0.022584096
55	0xbcf668bc	-0.030079238
56	0x3e14e068	0.14538729
57	0xbd3402c3	-0.043947946
58	0xbcb26d0d	-0.021780515
59	0x3b11e8bc	0.0022263965
60	0xbd5f278f	-0.054481085
61	0x3d114cde	0.035473697
62	0x3d23b89b	0.039970975
63	0x3b5bc5f2	0.0033534733

layer3.1.weight f4 [64]
0	0x3f755f58	0.9584861
1	0x3f7be384	0.98394036
2	0x3f7a5eb0	0.9780073
3	0x3f7e2bce	0.9928559
4	0x3f8812a7	1.0630692
5	0x3f94dac3	1.1629261
6	0x3f8296bb	1.0202249
7	0x3f77ace5	0.9674819
8	0x3f6cdf56	0.92528284
9	0x3f74a61b	0.95565957
10	0x3f6d7fee	0.9277333
11	0x3f70b6f6	0.94029176
12	0x3f6468b2	0.8922225
13	0x3f4f6e33	0.81027526
14	0x3f803387	1.0015725
15	0x3f70380b	0.93835515
16	0x3f858fa7	1.0434464
17	0x3f81f8e9	1.0154086
18	0x3f7ac72d	0.9796017
19	0x3f844b0f	1.0335406
20	0x3f56f3c6	0.8396572
21	0x3f6bad4b	0.920613
22	0x3f862cf9	1.0482475
23	0x3f844e04	1.0336308
24	0x3f8011fa	1.0005486
25	0x3f8aa001	1.0830079
26	0x3f7cd870	0.9876776
27	0x3f6ccc7a	0.92499506
28	0x3f52c302	0.8232881
29	0x3f70b59d	0.9402712
30	0x3f8a5d83	1.0809788
31	0x3f752bcc	0.95769954
32	0x3f842221	1.0322915
33	0x3f789061	0.97095305
34	0x3f6fb5e9	0.9363695
35	0x3f869f4e	1.0517366
36	0x3f6d790c	0.9276283
37	0x3f6b99d6	0.9203161
38	0x3f7a3c4f	0.97748274
39	0x3f72d54a	0.94856703
40	0x3f7d665e	0.98984325
41	0x3f7adbaf	0.9799146
42	0x3f7bcf59	0.9836326
43	0x3f818c3c	1.0120921
44	0x3f86d38d	1.053331
45	0x3f7021d8	0.9380164
46	0x3f667d90	0.90035343
47	0x3f89af48	1.0756617
48	0x3f8358cb	1.0261472
49	0x3f72c9e1	0.9483929
50	0x3f846b4e	1.0345247
51	0x3f726a42	0.94693387
52	0x3f81bca5	1.0135695
53	0x3f726a1c	0.9469316
54	0x3f6236ce	0.88364875
55	0x3f731a38	0.9496188
56	0x3f84708e	1.0346849
57	0x3f71832f	0.94340795
58	0x3f72b1b5	0.9480241
59	0x3f6e8370	0.9316931
60	0x3f7702ac	0.9648845
61	0x3f68734c	0.9080093
62	0x3f7a68a4	0.9781592
63	0x3f6cc2e8	0.92484903

layer3.1.bias f4 [64]
0	0xbe465ef5	-0.1937216
1	0xbea616f4	-0.32439387
2	0xbef8fa0c	-0.4862827
3	0xbe29c206	-0.1657792
4	0xbed6899e	-0.4190187
5	0xbeb59d91	-0.35471776
6	0xbe7b668c	-0.24550837
7	0xbedfb3a2	-0.43691736
8	0xbe653161	-0.22382118
9	0xbeab97d3	-0.3351427
10	0xbef1b89c	-0.47211158
11	0xbec254c7	-0.37955305
12	0xbf131653	-0.5745594
13	0xbe705e91	-0.23473574
14	0xbe34f9d1	-0.17673422
15	0xbee4eaeb	-0.44710478
16	0xbe3eeff9	-0.1864623
17	0xbe469fe6	-0.19396934
18	0xbe819928	-0.2531216
19	0xbe3620ef	-0.17786
20	0xbeaf2bee	-0.34213203
21	0xbe842670	-0.25810575
22	0xbf102a74	-0.5631478
23	0xbe6db3ca	-0.23213115
24	0xbe486708	-0.19570553
25	0xbec4fc35	-0.3847367
26	0xbeac8049	-0.33691624
27	0xbea58ddc	-0.32334793
28	0xbf0c377a	-0.5477215
29	0xbe1b4726	-0.1516386
30	0xbe091202	-0.13385776
31	0xbe7f461b	-0.24929087
32	0xbe4022ec	-0.18763322
33	0xbec9ae91	-0.39390996
34	0xbe81e0f1	-0.2536693
35	0xbe3a58b0	-0.18197894
36	0xbe6089c1	-0.21927549
37	0xbe8eba6e	-0.2787661
38	0xbf036098	-0.51319265
39	0xbe5c7757	-0.215299
40	0xbed200a6	-0.4101612
41	0xbe63c410	-0.2224276
42	0xbe4753e5	-0.19465597
43	0xbe655a18	-0.2239765
44	0xbe962eac	-0.29332483
45	0xbe5e5af4	-0.21714383
46	0xbf206f27	-0.62669605
47	0xbe8f5258	-0.2799251
48	0xbdd0d439	-0.10196728
49	0xbe6c844d	-0.23097344
50	0xbedd9ae8	-0.43282247
51	0xbeb2d082	-0.34924704
52	0xbe768cc7	-0.2407714
53	0xbeabf80a	-0.33587676
54	0xbe9b2de6	-0.30308455
55	0xbeddbf4b	-0.43310007
56	0xbe8a46f4	-0.27007258
57	0xbea40e6d	-0.32042256
58	0xbf02147e	-0.5081252
59	0xbeb4787f	-0.3524818
60	0xbe54a0ad	-0.20764418
61	0xbebf7113	-0.37390956
62	0xbe039310	-0.12849069
63	0xbe83a3b2	-0.25710827

layer3.1.running_mean f4 [64]
0	0xbf8fb72c	-1.1227775
1	0xbfe59a7a	-1.7937768
2	0x3f61ae4a	0.8815657
3	0xbfa8db28	-1.3191881
4	0x3fe5e00c	1.7958999
5	0xbf46c1a2	-0.7763921
6	0x3e04a3b0	0.12953067
7	0xbd597b16	-0.0530959
8	0x3f8958e5	1.0730253
9	0x3dfc3973	0.12315645
10	0xc0297389	-2.6476767
11	0xbf725b5d	-0.9467066
12	0xbfbbfde6	-1.4686859
13	0xbff1798a	-1.8865216
14	0x3eda32b6	0.42616814
15	0xc049ee4e	-3.15517
16	0xbe466148	-0.19373047
17	0x3fca4b7b	1.5804285
18	0xbe34ede3	-0.17668872
19	0x3d91f373	0.071265124
20	0xc0222002	-2.5332036
21	0xbfa9621c	-1.3233066
22	0x3e9331a6	0.28748816
23	0xbe21839c	-0.15772861
24	0xbec41c51	-0.38302854
25	0x3f120268	0.5703492
26	0xbfc5d7df	-1.5456504
27	0xbf8cea4e	-1.1009004
28	0xbf6c15b8	-0.9222064
29	0xc06e8fc8	-3.7275257
30	0x3fa818d5	1.3132578
31	0x3ef004cb	0.46878657
32	0xbf986c89	-1.1908122
33	0x3f2890d3	0.65845984
34	0x3ffc92f6	1.9732349
35	0x3f009488	0.5022664
36	0x3f9dc917	1.2326993
37	0xbfdfadc0	-1.7474899
38	0x3fde87b9	1.7385169
39	0xc011a8cf	-2.2759283
40	0x3e41d47a	0.1892871
41	0xbf42cccc	-0.76093745
42	0xbdedd493	-0.11612811
43	0xbeae680d	-0.3406376
44	0xbf19714a	-0.5993849
45	0xbf159485	-0.5842975
46	0xbb7c9160	-0.0038538799
47	0xbf0e61cb	-0.5561797
48	0xc057943e	-3.368423
49	0xbd0ab228	-0.03386131
50	0xbfacd739	-1.3503181
51	0xbfe5cdc1	-1.7953416
52	0xbfe2e8d4	-1.7727304
53	0x3f590b12	0.84782517
54	0x3f09ebeb	0.5387561
55	0xc01decb6	-2.4675727
56	0x4097d464	4.7446766
57	0x403cded6	2.9511008
58	0xbf3bee86	-0.7341083
59	0x3fa8b14c	1.3179107
60	0x4061f598	3.5306149
61	0x3f73fe69	0.95310074
62	0xc064d72d	-3.5756333
63	0x3fd69ae0	1.6766014

layer3.1.running_var f4 [64]
0	0x405ab789	3.417452
1	0x401cfb4a	2.4528375
2	0x40485970	3.1304588
3	0x40aeba42	5.4602365
4	0x405f60fd	3.4902947
5	0x40210dba	2.5164628
6	0x405ff78d	3.4994843
7	0x40475c38	3.1150036
8	0x407bea1a	3.9361634
9	0x40c56b38	6.169338
10	0x4095a685	4.676577
11	0x40071474	2.1106234
12	0x4026053a	2.594069
13	0x40627425	3.538339
14	0x40a5fbd8	5.1869926
15	0x4096f59d	4.717482
16	0x403b0fc0	2.9228363
17	0x40add122	5.431779
18	0x405d153e	3.4544215
19	0x4000bd38	2.011549
20	0x4051becb	3.27727
21	0x40b1fcfa	5.562131
22	0x4096f37a	4.7172213
23	0x40709bc1	3.7595065
24	0x40489066	3.1338134
25	0x40a6a6f4	5.20788
26	0x4083afa1	4.115189
27	0x40633b96	3.5505118
28	0x403a3826	2.909677
29	0x4087fe6a	4.2498064
30	0x40aa3df6	5.3200636
31	0x40d4538c	6.6351986
32	0x40c2698e	6.075385
33	0x4026280d	2.5961945
34	0x40ab3a60	5.350876
35	0x4034ba9e	2.8238902
36	0x40871fb9	4.2226224
37	0x4070f2d1	3.7648203
38	0x404d44b5	3.2073185
39	0x40dee6ab	6.9656577
40	0x4039877c	2.8988943
41	0x40bd8fb2	5.923791
42	0x408c98c4	4.393648
43	0x401e10e0	2.46978
44	0x4086ad16	4.2086287
45	0x4085ac5a	4.177289
46	0x404bbab5	3.1832707
47	0x406f28d9	3.7368681
48	0x40afa995	5.489451
49	0x40439901	3.0562136
50	0x4019721c	2.3975897
51	0x4098a9bb	4.770719
52	0x4096546d	4.697806
53	0x405eb99f	3.4800794
54	0x404fc192	3.2461896
55	0x40370977	2.8599527
56	0x408854c3	4.260347
57	0x4069d0b3	3.653363
58	0x409f6a0f	4.9816966
59	0x4027042b	2.6096294
60	0x40ab9544	5.361971
61	0x40008d82	2.008637
62	0x407ec484	3.9807444
63	0x40cf72ba	6.4827547

fc1.weight f4 [10, 576]
0	0x3c9c1843	0.019054538
1	0xbd949ebf	-0.07256841
2	0xbda3a274	-0.0798997
3	0xbd99f4e2	-0.07517411
4	0xbe26b168	-0.16278613
5	0xbdf826c1	-0.12116767
6	0xbb5fd368	-0.0034153108
7	0xbd767246	-0.060167573
8	0x3c64ca9e	0.013964323
9	0x3dae98ba	0.08525224
10	0xbb470771	-0.0030369426
11	0x3c927a58	0.017880604
12	0xbb536c3c	-0.0032260558
13	0xbd89cc98	-0.06728476
14	0xbd4529df	-0.048135635
15	0x3cdbe7cc	0.026843928
16	0xbde5b319	-0.11215801
17	0xba0d1a8b	-0.00053826784
18	0x3e42b842	0.19015601
19	0x3e91cc8d	0.28476372
20	0x3e77e80d	0.24209614
21	0x3e6c3c71	0.23069932
22	0x3e9d880f	0.30767867
23	0x3e787b00	0.24265671
24	0x3dbeee01	0.093227394
25	0x3de23cac	0.110467285
26	0x3d48e2de	0.049044482
27	0x3d04c42e	0.032413654
28	0x3d2204c3	0.039555322
29	0x3d104c5f	0.035229083
30	0x3dec8108	0.11548048
31	0x3e6149bd	0.22000785
32	0x3dc27c4a	0.094963625
33	0x3deea9ee	0.11653505
34	0x3e3a9cfe	0.1822395
35	0x3e2c778c	0.16842479
36	0x3dd02909	0.10164077
37	0x3e8c049f	0.27347276
38	0x3e2e8d75	0.17046149
39	0x3de16832	0.11006202
40	0x3e8373de	0.25674337
41	0x3e732265	0.23743589
42	0x3e1e4485	0.15455826
43	0x3e631900	0.22177505
44	0x3e349674	0.17635518
45	0x3e35c92f	0.17752527
46	0x3ea781bb	0.32716164
47	0x3e3d946a	0.18513647
48	0x3e82dcc3	0.25559053
49	0x3e9dad3e	0.30796236
50	0x3e1da69e	0.1539559
51	0x3e59cfec	0.21270722
52	0x3e25cb96	0.16190943
53	0x3d64641a	0.055759527
54	0xbe264cb8	-0.16240203
55	0xbd61c32b	-0.055117767
56	0xbe700cce	-0.23442385
57	0xbdc0e681	-0.09418965
58	0xbe0e99c1	-0.1392584
59	0xbe3309a0	-0.1748414
60	0xbd292bc8	-0.04130152
61	0xbd587913	-0.05284984
62	0xbd58f611	-0.052969042
63	0xbe58f0b4	-0.21185571
64	0xbe48e6c2	-0.19619277
65	0xbe925fcb	-0.2858871
66	0xbdde3da0	-0.10851598
67	0xbd851b8e	-0.06499396
68	0xbdc55b66	-0.096365735
69	0x3d171aeb	0.036890905
70	0x3d2d7b2d	0.042353798
71	0x3d243c27	0.04009643
72	0xbd9495f8	-0.07255167
73	0xbd6ca1c8	-0.057771474
74	0x3d98443f	0.07434892
75	0xbd388bf2	-0.045055337
76	0x3ce71487	0.02820803
77	0x3db0f20b	0.08639916
78	0x3df274a2	0.11838652
79	0x3e0debdc	0.13859504
80	0x3e38c5b0	0.18044162
81	0xbbb79773	-0.005602771
82	0xbe161ee3	-0.1466022
83	0x3b1c6340	0.0023862869
84	0xbd936fd9	-0.071990676
85	0xbe665703	-0.2249413
86	0xbd5b5deb	-0.053556364
87	0xbd850b73	-0.064963244
88	0xbd8c8523	-0.06861331
89	0xbdce352e	-0.10068737
90	0x3d61a8e2	0.0550927
91	0xbdbce776	-0.09223835
92	0xbc769b64	-0.015051696
93	0x3cf52a6d	0.029927457
94	0xbe792854	-0.2433179
95	0xbd549d60	-0.051907897
96	0xbcb1422e	-0.021638002
97	0xbdd9e7da	-0.10639925
98	0x3cd57119	0.026054906
99	0xbe1bb766	-0.1520668
100	0xbe0cf71d	-0.13766141
101	0xbe78d22f	-0.24298929
102	0xbdcccc5c	-0.09999916
103	0xbdee0bd7	-0.11623352
104	0xbe0bdac7	-0.13657676
105	0xbd910ceb	-0.07082542
106	0xbc3d42be	-0.011551557
107	0xbd4350a4	-0.047684327
108	0x3d0dd410	0.034626067
109	0x3e3de96a	0.18546072
110	0x3ea3353e	0.31876558
111	0x3db0ecc8	0.086389124
112	0x3e2b9ab5	0.16758235
113	0x3e75d024	0.2400518
114	0xbdc4ee97	-0.0961582
115	0x3c66ccde	0.01408693
116	0x3da2bfea	0.07946761
117	0x3cfa6775	0.03056691
118	0x3d833fd8	0.064086616
119	0x3dbbac1b	0.09163686
120	0xbce80225	-0.028321335
121	0x3e2fdcf9	0.17174138
122	0x3d9ebc59	0.07750768
123	0xbd56e5cb	-0.05246524
124	0x3d84053c	0.06446311
125	0x3d985811	0.07438672
126	0xbda3785b	-0.0798194
127	0xbe14d050	-0.1453259
128	0xbdd950dc	-0.10611126
129	0xbe059fc3	-0.13049226
130	0xbe31ead7	-0.1737474
131	0xbdb230f9	-0.08700747
132	0xbd86efbc	-0.065886945
133	0xbdb05e12	-0.086116925
134	0xbc9c77ec	-0.019100152
135	0x3d27adea	0.04093734
136	0xbdd65a30	-0.10466421
137	0xbd849972	-0.0647458
138	0x3d4c7640	0.04991746
139	0xbde8c8d7	-0.11366432
140	0x3c8ffd79	0.01757692
141	0x3e735ab9	0.23765077
142	0x3df77de3	0.12084558
143	0x3e226599	0.15859069
144	0xbe47aae0	-0.19498777
145	0xbdd2341c	-0.10263845
146	0xbe36f833	-0.17868118
147	0xbdfbdaf8	-0.12297624
148	0xbdc6a905	-0.09700207
149	0xbd4399fb	-0.04775427
150	0xbe08268a	-0.13295951
151	0xbdf2f00f	-0.11862194
152	0xbd99dd62	-0.075129285
153	0xbe4dfdc6	-0.20116338
154	0xbdca2cc9	-0.09871823
155	0xbdeeaabd	-0.116536595
156	0xbdd64fd9	-0.104644485
157	0xbdfad653	-0.1224791
158	0xbdaec288	-0.08533198
159	0xbe089dff	-0.1334152
160	0xbe044d82	-0.12920192
161	0xbdbf05f4	-0.09327307
162	0xbe2106d3	-0.1572526
163	0xbdd35fa1	-0.10320974
164	0xbe31a5a2	-0.1734834
165	0xbe030a96	-0.12797007
166	0xbe1f0a2a	-0.15531221
167	0xbe17a7de	-0.1481013
168	0xbbb585bb	-0.0055396236
169	0xbdce5979	-0.10075659
170	0xbe126696	-0.14296946
171	0x3d1c5cc6	0.038174413
172	0xbb986e7b	-0.004651842
173	0xbdd194c4	-0.10233453
174	0xbdd1eed8	-0.10250634
175	0xbd9a849e	-0.07544826
176	0xbb879698	-0.004137825
177	0xbe54fbc8	-0.20799172
178	0xbdf8e3d4	-0.1215283
179	0xbe02cc01	-0.12773134
180	0xbe287703	-0.1645165
181	0xbdd826fd	-0.105543114
182	0xbe009750	-0.12557721
183	0xbcb3a32a	-0.021928389
184	0x3d2cb076	0.042160474
185	0xbc1e1a69	-0.009649851
186	0x3dd8ea90	0.10591614
187	0x3e390f62	0.18072274
188	0x3d902feb	0.070403896
189	0x3d95d958	0.07316846
190	0x3d6f2394	0.05838354
191	0x3dff124c	0.12454662
192	0x3de7f3ab	0.11325773
193	0x3e170654	0.14748508
194	0x3d2fb26f	0.042894777
195	0x3df6e620	0.120556116
196	0x3e0ca46a	0.13734594
197	0x3e0af617	0.13570438
198	0x3ec96d58	0.39341235
199	0x3e86c9db	0.26325879
200	0x3d1b2ab8	0.037882537
201	0x3e817a84	0.25288785
202	0x3c76fa25	0.015074288
203	0xbc9c7e38	-0.019103155
204	0x3dacda64	0.08440092
205	0xba4e2ab8	-0.0007864642
206	0xbd9ded38	-0.077112615
207	0xbe5e42a1	-0.21705104
208	0xbdf6a501	-0.12043191
209	0xbe5534a4	-0.20820862
210	0xbe30feb3	-0.1728466
211	0xbd99aa4f	-0.07503187
212	0xbe136cd3	-0.14396982
213	0xbd5931fc	-0.053026184
214	0xbd113741	-0.035453085
215	0xbddf3bca	-0.10900076
216	0xbe2518c7	-0.16122733
217	0xbe03798e	-0.12839338
218	0xbe114d97	-0.14189754
219	0xbdbf56a1	-0.09342695
220	0xbde3f07d	-0.11129854
221	0xbd939a70	-0.07207191
222	0xbd74a4b3	-0.059727382
223	0xbbc8b804	-0.006125452
224	0xbcef6769	-0.029224114
225	0x3e5395c3	0.20662598
226	0x3e6afd04	0.2294808
227	0x3e2f4806	0.17117319
228	0x3dce9fb4	0.10089055
229	0x3e47e066	0.19519195
230	0x3e17e204	0.14832312
231	0xbd56077f	-0.052253243
232	0x3bb76350	0.005596556
233	0xbd9dedbf	-0.07711362
234	0xbe546880	-0.20742989
235	0xbe3a674d	-0.18203469
236	0xbe6d731b	-0.2318844
237	0xbe5788df	-0.21048306
238	0xbe86a559	-0.26298025
239	0xbe45eaa0	-0.19327784
240	0xbcd5558f	-0.026041774
241	0xbd271141	-0.04078794
242	0x3c35d0eb	0.011097173
243	0xbd9a3236	-0.07529108
244	0xbda2a42a	-0.07941468
245	0xbd92dc38	-0.0717091
246	0x3d7619b0	0.06008309
247	0xbd970f12	-0.07375921
248	0xbd49c0de	-0.049256198
249	0x3e0638e1	0.13107635
250	0x3e75c339	0.24000253
251	0x3e1cda02	0.15317538
252	0xbe1342f8	-0.14381015
253	0xbe2004f9	-0.15626897
254	0xbe57fae0	-0.21091795
255	0xbd4b5d11	-0.049649302

fc1.bias f4 [10]
0	0x3c69b035	0.014263202
1	0xbd16efa6	-0.03684964
2	0xbd129902	-0.03579045
3	0xbcea5617	-0.028605504
4	0xbc1cc0a3	-0.009567413
5	0x3d26bfde	0.040710323
6	0xbd360aea	-0.044444002
7	0xbcfde572	-0.030993197
8	0xbd5818f2	-0.052758165
9	0xbc14b405	-0.009076123

fc2.weight f4 [2, 10]
0	0xbefe4ad4	-0.49666464
1	0xbe0c9823	-0.1372991
2	0xbe410721	-0.18850376
3	0x3df3530b	0.118810736
4	0x3be67042	0.007032425
5	0x3ec361ea	0.3816064
6	0xbe0a472d	-0.13503714
7	0xbe1bf732	-0.15231016
8	0x3d81b2af	0.06332909
9	0xbda7e070	-0.08197105
10	0x3e01673b	0.12637036
11	0xbe150b9b	-0.14555208
12	0x3e2383f8	0.15968311
13	0xbe541bfd	-0.20713802
14	0xbe15d9eb	-0.1463391
15	0xbe66a99a	-0.22525635
16	0x3dca6c37	0.098839216
17	0x3d515a26	0.051111363
18	0x3e9703cf	0.29495093
19	0xbee60e10	-0.44932604

fc2.bias f4 [2]
0	0xbe569250	-0.20954251
1	0x3e3be448	0.18348801
